Same as dense 1 but with the philosophy deeper is better
>> Using device: GeForce GTX 1050 Ti 
VariationalAutoencoder(
  (vi): VariationalInference()
  (encoder): Sequential(
    (0): Linear(in_features=4750, out_features=256, bias=True)
    (1): ReLU()
    (2): Linear(in_features=256, out_features=256, bias=True)
    (3): ReLU()
    (4): Linear(in_features=256, out_features=256, bias=True)
    (5): ReLU()
    (6): Linear(in_features=256, out_features=256, bias=True)
    (7): ReLU()
    (8): Linear(in_features=256, out_features=256, bias=True)
    (9): ReLU()
    (10): Linear(in_features=256, out_features=200, bias=True)
  )
  (decoder): Sequential(
    (0): Linear(in_features=100, out_features=128, bias=True)
    (1): ReLU()
    (2): Linear(in_features=128, out_features=256, bias=True)
    (3): ReLU()
    (4): Linear(in_features=256, out_features=256, bias=True)
    (5): ReLU()
    (6): Linear(in_features=256, out_features=256, bias=True)
    (7): ReLU()
    (8): Linear(in_features=256, out_features=256, bias=True)
    (9): ReLU()
    (10): Linear(in_features=256, out_features=9500, bias=True)
  )
)
Epoch 0/1000 
Epoch 10/1000 
Epoch 20/1000 
Epoch 30/1000 
Epoch 40/1000 
Epoch 50/1000 
Epoch 60/1000 
Epoch 70/1000 
Epoch 80/1000 
Epoch 90/1000 
Epoch 100/1000 
Epoch 110/1000 
Epoch 120/1000 
Epoch 130/1000 
Epoch 140/1000 
Epoch 150/1000 
Epoch 160/1000 
Epoch 170/1000 
Epoch 180/1000 
Epoch 190/1000 
Epoch 200/1000 
Epoch 210/1000 
Epoch 220/1000 
…
