Test
>> Using device: GeForce GTX 1050 Ti 
VariationalAutoencoder(
  (vi): VariationalInference()
  (encoder): Sequential(
    (0): Conv1d(19, 256, kernel_size=(11,), stride=(1,), padding=(5,))
    (1): ReLU()
    (2): Conv1d(256, 1, kernel_size=(11,), stride=(1,), padding=(5,))
    (3): ReLU()
    (4): Linear(in_features=250, out_features=256, bias=True)
    (5): ReLU()
    (6): Linear(in_features=256, out_features=128, bias=True)
    (7): ReLU()
    (8): Linear(in_features=128, out_features=200, bias=True)
  )
  (decoder): Sequential(
    (0): Linear(in_features=100, out_features=128, bias=True)
    (1): ReLU()
    (2): Linear(in_features=128, out_features=256, bias=True)
    (3): ReLU()
    (4): Linear(in_features=256, out_features=250, bias=True)
    (5): ReLU()
    (6): Conv1d(1, 256, kernel_size=(11,), stride=(1,), padding=(5,))
    (7): ReLU()
    (8): Conv1d(256, 38, kernel_size=(11,), stride=(1,), padding=(5,))
  )
)
Epoch 0/100 
Epoch 10/100 
Epoch 20/100 
Epoch 30/100 
Epoch 40/100 
Epoch 50/100 
Epoch 60/100 
Epoch 70/100 
Epoch 80/100 
Epoch 90/100 
